model_emnist.pt (torch_old, 712295 bytes, 10 tensors)

conv1.weight f4 [16, 1, 3, 3]
0.011844296 0.38120854 0.42940205 -0.38335723 -0.08633921 0.20214549 -0.16038473 -0.34466204
-0.21612695 -0.3485065 0.2209422 0.8876653 -0.40920877 -0.5271378 0.7359226 -0.8486916
-0.39166287 0.91618794 0.06614187 0.10773754 0.66377324 -0.5736728 -0.25627774 0.28153875
-0.23792098 0.1495869 -0.16738962 0.14066336 -0.486116 -0.521066 0.366199 0.21067207
-0.34642845 -0.21709318 0.4342741 0.7608847 0.3120232 -0.41663337 -0.44237947 0.627997
0.10077805 -0.75905955 0.9528711 -0.21767294 -0.42091307 0.3465085 0.4884145 -0.05359955
0.17435613 0.49155968 0.20881408 -0.67822796 -0.72988176 -0.040897485 -0.08307519 0.14990602
0.00048203432 -0.47099617 -0.1948154 -0.28401142 -0.22120981 -0.22487035 -0.30150843 -0.1559281
-0.38466433 -0.8032637 0.26097724 0.11179959 -0.4214207 0.51638794 0.53940785 0.7337609
-0.3804873 -0.46315944 0.029914657 -0.30884194 -0.23255438 -0.3226285 -0.2832458 -0.23598865
-0.059436817 0.50007415 0.461982 -0.10262519 0.015981998 0.7025697 0.16174701 -0.5683427
0.6253322 0.5654379 -0.24669965 0.21762718 0.5648243 -0.41802502 0.1527595 -0.3223854
-0.21292745 -0.2788336 -0.32506648 0.012329917 0.4735241 -0.23920442 -0.050790705 0.34299698
-0.063303046 0.24453932 0.17424288 -0.71409965 -0.11333559 -0.37030405 0.0226059 -0.37551725
-0.21804935 -0.09760898 -0.1642147 -0.5019693 -0.37116995 -0.066630326 -0.4123005 -0.3297162
-0.17284973 -0.106486574 -0.31108025 -0.27943516 -0.42720622 -0.045077197 -0.94523525 -0.6039491
0.63882196 0.049599554 0.9059359 0.70878536 0.47646487 -0.17531727 -0.5881432 0.20356257
0.685389 0.6145881 0.013502733 -0.089237235 0.057555884 -0.55943465 -0.5302258 -0.30188492
00000000: 940e 423c c42d c33e 96da db3e 6647 c4be
00000010: 9dd2 b0bd 3aff 4e3e e53b 24be 8b77 b0be
00000020: 6250 5dbe 726f b2be ac3e 623e 083e 633f
00000030: d083 d1be 81f2 06bf 6c65 3c3f da43 59bf
00000040: 0988 c8be 4b8b 6a3f 6475 873d 80a5 dc3d
00000050: 0bed 293f 38dc 12bf d636 83be d925 903e
00000060: 8fa1 73be 4f2d 193e 2f68 2bbe 0e0a 103e
00000070: 32e4 f8be 9564 05bf 6f7e bb3e 6bba 573e
00000080: 125f b1be ad4d 5ebe 2d59 de3e 57c9 423f
00000090: 81c1 9f3e f850 d5be 907f e2be 69c4 203f
000000a0: b964 ce3d ba51 42bf 5cef 733f a8e5 5ebe
000000b0: eb81 d7be 9069 b13e 7711 fa3e 348b 5bbd
000000c0: 6a8a 323e b6ad fb3e 5cd3 553e 59a0 2dbf
000000d0: 88d9 3abf 1f84 27bd 5323 aabd f780 193e
000000e0: 8db9 fc39 6926 f1be b07d 47be f269 91be
000000f0: d384 62be 6a44 66be 505f 9abe 9eab 1fbe
00000100: b9f2 c4be b1a2 4dbf cf9e 853e 2ff7 e43d
00000110: 74c4 d7be 0032 043f a216 0a3f c1d7 3b3f
00000120: 3bcf c2be 3c23 edbe 950f f53c 8820 9ebe
00000130: bc22 6ebe 902f a5be 9805 91be 02a7 71be
00000140: 0574 73bd dc04 003f e888 ec3e 282d d2bd
00000150: aeec 823c 9cdb 333f 02a1 253e e87e 11bf
00000160: c515 203f 8ac0 103f d59e 7cbe a9d9 5e3e
00000170: 5398 103f 6007 d6be fd6c 1c3e b30f a5be
00000180: a709 5abe 47c3 8ebe 1d6f a6be 6c03 4a3c
00000190: c071 f23e 01f2 74be ea09 50bd 4d9d af3e
000001a0: 07a5 81bd 8468 7a3e ba6c 323e 3ccf 36bf
000001b0: 7d1c e8bd 7e98 bdbe 0230 b93c cc43 c0be
000001c0: 5448 5fbe 38e7 c7bd e627 28be 0f81 00bf
000001d0: fd09 bebe 7b75 88bd 0d19 d3be 90d0 a8be
000001e0: 85ff 30be a215 dabd e945 9fbe 2012 8fbe
000001f0: c6ba dabe dea2 38bd f0fa 71bf 699c 1abf
00000200: d689 233f e728 4b3d 6aeb 673f f572 353f
00000210: 34f3 f33e 5f86 33be 8e90 16bf b572 503e
00000220: a775 2f3f a555 1d3f 913a 5d3c 03c2 b6bd
00000230: b8bf 6b3d 1c37 0fbf e1bc 07bf a990 9abe

conv1.bias f4 [16]
0.10103236 0.2359896 0.053177983 0.31639552 0.2835695 0.1648907 0.045559954 0.3801776
-0.47620472 1.3643142 -0.35241124 0.14190196 -0.3223541 -0.39229077 0.33679482 0.1125069
00000000: 0eea ce3d 42a7 713e 28d1 593d 98fe a13e
00000010: 0630 913e 1cd9 283e 139d 3a3d a3a6 c23e
00000020: 1bd1 f3be d9a1 ae3f 3f6f b4be bf4e 113e
00000030: 990b a5be 56da c8be 5f70 ac3e 056a e63d

conv2.weight f4 [32, 16, 3, 3]
0.007079436 -0.038181648 -0.019165222 0.044171743 0.084175475 -0.02529692 -0.04806363 0.043651108
-0.058444664 0.041428 -0.0483894 -0.032010328 -0.009471686 0.02010192 0.075064786 -0.12054858
0.038463544 0.11135265 0.09179272 -0.023141544 -0.03974468 -0.059440047 0.04363037 -0.03618684
0.024087682 0.004923918 -0.05794814 0.093537636 0.07417283 0.0062228576 0.06445691 0.00091545464
0.0048002857 -0.02799997 -0.0045234477 -0.06345679 -0.037331555 -0.001300711 0.016819697 0.041170664
0.018182172 -0.0055859056 0.070849076 -0.008150701 0.077862844 0.052064262 0.0025204867 0.0802044
0.060610294 0.07419574 -0.017249336 -0.06847064 -0.05960498 -0.08926338 0.034609094 0.04341915
-0.042133056 -0.023959046 0.024833431 -0.08942954 -0.04769317 -0.026109116 0.014379655 -0.028637048
0.13164179 0.047551367 -0.044271547 -0.07578305 -0.029435739 0.0084963385 0.13161637 0.009520154
-0.0059981477 0.039478604 -0.06372466 -0.00669101 0.07631036 -0.025718177 -0.051817458 -0.087392285
-0.04471682 0.044291534 0.11572959 0.08518554 -0.065580614 -0.048768926 0.06016568 -0.07266355
-0.060674407 -0.0005908514 0.05448765 -0.05934488 0.062425952 0.038746256 0.05754904 0.06058846
-0.033901174 -0.06887298 -0.07585409 0.06825936 -0.0010086695 -0.023958694 -0.045674294 0.05564144
-0.0051237284 -0.048877873 0.013950123 -0.00038943312 -0.09725471 -0.05921313 0.06714933 -0.09246746
0.009381578 -0.01470447 -0.024001488 -0.09628203 -0.044022318 -0.018851738 -0.038108602 0.06430697
-0.021720253 0.010905346 -0.032152537 -0.002672262 -0.05862694 -0.04897765 0.049202126 0.06836417
0.03580802 0.031407334 -0.086604856 -0.06932234 0.087706305 0.005352933 0.15791963 -0.0007631865
0.12843959 0.022802927 0.088615835 0.1365516 -0.030967792 -0.03570766 -0.10834351 -0.011007278
0.07629815 -0.010374447 0.045581706 0.076932415 0.054136645 0.064255476 -0.01261763 0.019727264
0.0058881845 -0.14784573 -0.11395988 0.00914459 0.00501366 -0.033075698 -0.08022452 -0.076109275
0.000320576 0.019920833 0.002498771 -0.07929047 0.036320627 0.0455747 0.12984441 0.10920126
-0.10298256 0.06760042 -0.03531543 0.18239684 0.16684033 0.15055764 0.032416787 0.0725143
-0.04288023 -0.001039133 -0.013643195 -0.0051046014 -0.10095871 -0.029990409 0.010282136 -0.0258517
-0.0062315855 -0.10224369 -0.054775987 -0.045245573 0.014985606 0.058621 0.023690585 -0.09844696
0.15438993 0.19905272 0.06771095 0.15803409 0.048370037 0.05487919 0.09017303 0.07968731
0.096473865 0.07520032 0.062173583 0.024087587 0.006529333 -0.035047974 0.03327424 0.22355632
0.26385644 0.19750537 0.0690397 -0.06478873 -0.06597828 -0.02457322 0.089381956 0.044294264
-0.040639598 -0.00933442 0.12755264 -0.079667404 0.014386944 -0.015752591 -0.028150411 -0.107819
-0.028261144 -0.06533473 0.036916018 -0.04896637 0.021441147 -0.005530641 -0.018933315 -0.0748253
-0.0022159098 0.005537735 0.097531475 0.070568234 0.08945433 0.021155082 0.08889189 0.016768502
0.104958504 -0.045728367 -0.08128941 -0.11030589 -0.031849425 -0.08636962 -0.10072495 -0.07005252
0.04014131 -0.018512985 0.0147736035 0.06485101 0.033134032 -0.065414995 -0.046511475 0.04229869
00000000: 9dfa e73b 5c64 1cbd 6200 9dbc 6eed 343d
00000010: 3164 ac3d 7d3b cfbc 5ede 44bd 81cb 323d
00000020: ac63 6fbd 68b0 293d f733 46bd 431d 03bd
00000030: 212f 1bbc c8ac a43c 91bb 993d 2de2 f6bd
00000040: f38b 1d3d dc0c e43d d2fd bb3d 5693 bdbc
00000050: 51cb 22bd 6877 73bd c2b5 323d a738 14bd
00000060: 8853 c53c d158 a13b 075b 6dbd a990 bf3d
00000070: ede7 973d 1de9 cb3b fc01 843d 1ffb 6f3a
00000080: b74b 9d3b 3160 e5bc 6e39 94bb a2f5 81bd
00000090: f9e8 18bd 9e7c aaba 76c9 893c 92a2 283d
000000a0: c7f2 943c f909 b7bb 5219 913d 858a 05bc
000000b0: 8e76 9f3d 5641 553d c02e 253b 3442 a43d
000000c0: 8042 783d f0f3 973d 7b4e 8dbc 563a 8cbd
000000d0: 5a24 74bd b8cf b6bd 44c2 0d3d 47d8 313d
000000e0: b693 2cbd c345 c4bc 7b6f cb3c d626 b7bd
000000f0: ea59 43bd c9e2 d5bc a598 6b3c 3e98 eabc
00000100: 1bcd 063e 39c5 423d 1556 35bd 2534 9bbd
00000110: 3823 f1bc 3a34 0b3c 71c6 063e 6cfa 1b3c
00000120: 1c8c c4bb 51b4 213d 1382 82bd 4340 dbbb
00000130: 9b48 9c3d edae d2bc 8b3e 54bd bafa b2bd
00000140: fc28 37bd 0a6b 353d a303 ed3d c275 ae3d
00000150: 214f 86bd edc1 47bd 4a70 763d a1d0 94bd
00000160: ba85 78bd 5ee3 1aba 712e 5f3d 9e13 73bd
00000170: 5bb2 7f3d 65b4 1e3d 8bb8 6b3d 9b2b 783d
00000180: f5db 0abd 470d 8dbd 6459 9bbd 90cb 8b3d
00000190: 5535 84ba 0645 c4bc f814 3bbd 47e8 633d
000001a0: f3e4 a7bb 2a34 48bd 0f8f 643c d42c ccb9
000001b0: 7a2d c7bd 7889 72bd 9785 893d 945f bdbd
000001c0: 31b5 193c 04eb 70bc c59e c4bc 832f c5bd
000001d0: bf50 34bd f66e 9abc c417 1cbd 5fb3 833d
000001e0: acee b1bc 56ac 323c 61b2 03bd 1e21 2fbb
000001f0: cd22 70bd ca9c 48bd 2b88 493d 8402 8c3d
00000200: 6eab 123d faa4 003d e35d b1bd dff8 8dbd
00000210: 5d9f b33d a867 af3b afb5 213e 9410 48ba
00000220: ab85 033e 34cd ba3c 387c b53d 2fd4 0b3e
00000230: 2bb0 fdbc 3242 12bd 34e3 ddbd df57 34bc
00000240: 3442 9c3d 96f9 29bc e2b3 3a3d be8e 9d3d
00000250: 63be 5d3d 6098 833d 2dba 4ebc 129b a13c
00000260: acf1 c03b df64 17be cc63 e9bd 31d3 153c
00000270: a149 a43b 627a 07bd c14c a4bd 2edf 9bbd
00000280: fb12 a839 0431 a33c 6cc2 233b 0b63 a2bd
00000290: f0c4 143d 89ac 3a3d eff5 043e e9a4 df3d
000002a0: 85e8 d2bd 1772 8a3d eaa6 10bd 3dc6 3a3e
000002b0: 31d8 2a3e c82b 1a3e 77c7 043d 6182 943d
000002c0: 2ea3 2fbd 8533 88ba b587 5fbc 8044 a7bb
000002d0: 71c3 cebd 72ae f5bc 6776 283c f2c6 d3bc
000002e0: 5432 ccbb 2465 d1bd c95c 60bd 6c53 39bd
000002f0: 3086 753c 931c 703d c212 c23c 8f9e c9bd
00000300: 6518 1e3e 7ad4 4b3e 0aac 8a3d b0d3 213e
00000310: a91f 463d 00c9 603d a3ac b83d 1a33 a33d
00000320: 1794 c53d a002 9a3d baa9 7e3d 5553 c53c
00000330: 04f4 d53b 778e 0fbd 924a 083d f3eb 643e
00000340: 3118 873e d93e 4a3e b064 8d3d f4af 84bd
00000350: 9f1f 87bd c74d c9bc e30d b73d e76d 353d
00000360: b575 26bd 65ef 18bc 299d 023e aa28 a3bd
00000370: 37b7 6b3c 940b 81bc b19b e6bc 35d0 dcbd
00000380: ea83 e7bc 37ce 85bd 4035 173d f690 48bd
00000390: 58a5 af3c 613a b5bb 0a1a 9bbc 023e 99bd
000003a0: cc38 11bb e375 b53b 95be c73d 1486 903d
000003b0: d533 b73d 6c4d ad3c f40c b63d 195e 893c
000003c0: 7cf4 d63d ab4d 3bbd 107b a6bd 0ee8 e1bd
000003d0: 8b74 02bd 8ee2 b0bd e248 cebd b277 8fbd
000003e0: 376b 243d 8ba8 97bc fc0c 723c 9bd0 843d
000003f0: 8db7 073d 4cf8 85bd d182 3ebd 6441 2d3d

conv2.bias f4 [32]
-0.029997712 -0.013830341 -0.041221663 -0.019084604 0.11167518 0.024607813 0.012056768 0.07248463
-0.0664514 0.07290355 0.040939897 0.044205826 0.07451926 0.033580005 0.080756135 0.089929715
0.020676427 -0.022422047 -0.0382972 -0.010431265 0.03793016 -0.026924934 -0.068902805 0.045071278
-0.05351238 0.091335855 0.077766545 0.0009345397 0.015760548 -0.05322442 0.006476073 0.086871356
00000000: c3bd f5bc a898 62bc 0cd8 28bd 5157 9cbc
00000010: f5b5 e43d 5396 c93c c089 453c d272 943d
00000020: ac17 88bd 754e 953d 98b0 273d 2b11 353d
00000030: 8e9d 983d 308b 093d 7963 a53d 122d b83d
00000040: 9c61 a93c 71ae b7bc 86dd 1cbd e6e7 2abc
00000050: a85c 1b3d ae91 dcbc ea1c 8dbd a99c 383d
00000060: cc2f 5bbd 4b0e bb3d 1144 9f3d e6fb 743a
00000070: 441c 813c d901 5abd 3d35 d43b 9ce9 b13d

conv3.weight f4 [64, 32, 3, 3]
-0.026538603 -0.049062915 0.062411975 0.017402176 0.085593246 -0.026729805 -0.008687155 0.08362513
0.014597024 -0.027861686 0.03965903 0.077768475 0.016370116 0.07951172 0.098537005 -0.030602932
0.054173328 -0.024839962 0.0036273438 0.09588862 0.005333262 -0.010638049 0.050712895 0.031341016
0.006186999 0.03539616 0.014420406 -0.049242817 -0.043264784 0.048053134 0.034996327 0.18283658
0.21393923 0.040654376 0.0962533 -0.018060958 -0.099320605 0.054399647 0.05154812 0.035675123
0.012243186 -0.009797041 0.022404738 0.06294884 -0.029818619 0.08556859 0.043435052 -0.024298722
-0.05843683 -0.0662824 -0.039596986 0.008917043 -0.07322382 -0.021025296 0.061892368 0.055138078
0.0726881 -0.017983355 0.16765657 0.13169642 0.0003756468 -0.040326223 0.029328618 -0.0035313203
0.027345818 -0.07141009 0.005615699 -0.060892873 -0.08889332 -0.016394718 -0.074698135 -0.086328596
-0.042820517 -0.0069228983 0.07944939 -0.0102534825 -0.032154005 -0.0023668027 -0.012844045 0.097658366
0.022331877 -0.11432393 -0.03750586 0.0024605086 -0.06983026 -0.03652629 -0.04364219 0.0071472907
0.12171742 0.042115636 -0.014329625 0.102787614 -0.017953023 -0.033966504 -0.032789614 -0.029769864
0.06219192 0.07539477 -0.042014487 0.007251927 0.03802727 -0.014521392 0.035292618 -0.0134194
-0.010502078 -0.057561353 0.0071757897 0.0077296915 -0.029751763 0.06273935 -0.025701575 -0.046644643
-0.026463233 0.055703558 -0.018739933 -0.051265284 -0.10257395 0.031604692 -0.037007157 -0.069231614
-0.072593994 -0.10617108 -0.024715258 -0.074532785 -0.039358914 -0.07921088 -0.13548581 -0.004469627
-0.010240121 -0.008267317 -0.04919696 0.029462742 0.050108146 0.018883184 0.16707437 0.011283278
-0.061342224 -0.099423796 -0.050272647 -0.029314497 0.016010925 -0.07170748 -0.06172473 0.03193585
0.078099996 0.10283603 0.09349803 0.046873815 0.07006628 0.06059562 0.026058309 0.0005841437
-0.03944945 0.027851114 0.020707179 -0.023757374 0.03127812 -0.0105305035 -0.09559776 -0.05502945
-0.025337072 -0.094867475 -0.01159413 0.00520157 0.016094988 -0.013799359 -0.010918909 -0.050770607
0.04031231 0.07659641 0.029007347 -0.064935304 -0.05517847 -0.084286585 -0.05527576 -0.08237217
0.06923718 0.028090393 0.038970564 0.08791244 0.07674694 -0.05805789 -0.085624516 -0.08215986
-0.106210925 -0.1892567 -0.063002564 -0.09568405 -0.09948315 0.09395298 0.04314619 -0.059188932
-0.006057249 -0.01418959 -0.08556066 -0.06306601 -0.08655919 -0.12349421 -0.02591143 0.04953094
0.083271794 0.005947655 0.14062102 0.08151964 -0.012787397 0.023831196 -0.12285449 -0.046870712
0.0041836645 -0.007436994 0.0018952584 0.054150857 0.042205766 -0.013145913 0.05325112 -0.0053163166
0.082192056 0.09875661 -0.0024796783 -0.010727216 0.02311349 -0.018667845 -0.08183622 -0.08269658
-0.12300994 -0.0034735447 0.1470553 0.021871014 -0.10572958 -0.017770808 -0.032951597 -0.0029435186
-0.06861959 -0.077123374 -0.013883119 0.0037125845 -0.027765626 0.041371528 -0.03065192 0.04118913
-0.04135804 -0.015246144 -0.054311145 0.038531564 0.026582077 0.056612168 -0.047410384 0.035076536
0.0021014353 -0.03972436 0.044900667 0.019386977 0.0033443824 -0.065253854 -0.005125695 0.012676516
00000000: 7c67 d9bc 32f6 48bd b3a3 7f3d 028f 8e3c
00000010: 834b af3d 77f8 dabc 9254 0ebc a743 ab3d
00000020: 5b28 6f3c 313e e4bc 8271 223d 1445 9f3d
00000030: 9f1a 863c 0ad7 a23d c5cd c93d 00b3 fabc
00000040: dae4 5d3d 2d7d cbbc bbb8 6d3b 4161 c43d
00000050: a5c2 ae3b 364b 2ebc 53b8 4f3d 705f 003d
00000060: 4fbc ca3b 90fb 103d 9143 6c3c d6b2 49bd
00000070: 6a36 31bd 5dd3 443d 4f58 0f3d 8339 3b3e
00000080: e312 5b3e 3485 263d 7320 c53d 93f4 93bc
00000090: 9a68 cbbd 2ad2 5e3d 1f24 533d 1420 123d
000000a0: a597 483c c583 20bc 248a b73c 52eb 803d
000000b0: 2d46 f4bc 963e af3d f4e8 313d 1d0e c7bc
000000c0: 755b 6fbd 11bf 87bd 7330 22bd ca18 123c
000000d0: 5ff6 95bd 3e3d acbc da82 7d3d 77d8 613d
000000e0: 80dd 943d d451 93bc 2aae 2b3e 6ddb 063e
000000f0: 76f2 c439 1c2d 25bd 9242 f03c b96d 67bb
00000100: 5604 e03c 743f 92bd e603 b83b ce6a 79bd
00000110: b30d b6bd 374e 86bc 56fb 98bd 0ccd b0bd
00000120: 9164 2fbd 7bd9 e2bb 5db6 a23d 39fe 27bc
00000130: ebb3 03bd 5c1c 1bbb d46f 52bc 1c01 c83d
00000140: 57f1 b63c aa22 eabd bf9f 19bd 7c40 213b
00000150: 2b03 8fbd 979c 15bd 27c2 32bd d233 ea3b
00000160: fc46 f93d 7281 2c3d cec6 6abc 5082 d23d
00000170: 3812 93bc 7620 0bbd 674e 06bd eedf f3bc
00000180: f4bc 7e3d 9368 9a3d 6217 2cbd 93a1 ed3b
00000190: 7cc2 1b3d 22eb 6dbc fe8e 103d 0bdd 5bbc
000001a0: e810 2cbc 74c5 6bbd e322 eb3b 5a49 fd3b
000001b0: f8b9 f3bc 7d7d 803d 1c8c d2bc 740e 3fbd
000001c0: 6cc9 d8bc 6a29 643d 7d84 99bc 8cfb 51bd
000001d0: 4b12 d2bd ec73 013d d194 17bd 4ec9 8dbd
000001e0: 29ac 94bd 3970 d9bd a777 cabc a5a4 98bd
000001f0: d036 21bd 5039 a2bd cbbc 0abe f375 92bb
00000200: 2ec6 27bc a473 07bc c082 49bd d95b f13c
00000210: 333e 4d3d e8b0 9a3c 8b15 2b3e 80dd 383c
00000220: fc41 7bbd b49e cbbd b1ea 4dbd f524 f0bc
00000230: 5829 833c 5fdb 92bd 12d3 7cbd 2acf 023d
00000240: e4f2 9f3d b29b d23d e57b bf3d c2fe 3f3d
00000250: e97e 8f3d 1d33 783d 3c78 d53c 3821 193a
00000260: bf95 21bd 0528 e43c 1aa2 a93c d39e c2bc
00000270: 7c1d 003d 2288 2cbc c2c8 c3bd 9066 61bd
00000280: b18f cfbc e149 c2bd 4ef5 3dbc ef71 aa3b
00000290: a3d9 833c b516 62bc 39e5 32bc d7f4 4fbd
000002a0: 851e 253d 94de 9c3d d1a0 ed3c cdfc 84bd
000002b0: d202 62bd 729e acbd d668 62bd beb2 a8bd
000002c0: 39cc 8d3d d31d e63c 999f 1f3d 700b b43d
000002d0: 802d 9d3d 1cce 6dbd e85b afbd 6e43 a8bd
000002e0: 1d85 d9bd 82cc 41be 7d07 81bd 00f6 c3bd
000002f0: d2bd cbbd 6c6a c03d 0fba 303d 1870 72bd
00000300: e37b c6bb 747b 68bc 6d3a afbd c128 81bd
00000310: f245 b1bd 88ea fcbd 3544 d4bc f4e0 4a3d
00000320: 678a aa3d 8ce4 c23b f5fe 0f3e c5f3 a63d
00000330: 3b82 51bc a439 c33c 239b fbbd 81fb 3fbd
00000340: 1f17 893b 07b2 f3bb 526a f83a 4acd 5d3d
00000350: f4df 2c3d f561 57bc d91d 5a3d 7f34 aebb
00000360: 4f54 a83d e840 ca3d 1982 22bb 34c1 2fbc
00000370: 8058 bd3c 4fed 98bc c099 a7bd d35c a9bd
00000380: a3ec fbbd 69a4 63bb aa95 163e d72a b33c
00000390: c088 d8bd 1694 91bc 41f8 06bd 0ce8 40bb
000003a0: 6d88 8cbd dcf2 9dbd 0676 63bc d54e 733b
000003b0: bd74 e3bc 3175 293d bc19 fbbc efb5 283d
000003c0: 0c67 29bd f6ca 79bc 5d75 5ebd 46d3 1d3d
000003d0: a8c2 d93c 29e2 673d 6431 42bd 6aac 0f3d
000003e0: 3cb8 093b 03b6 22bd c3e9 373d 70d1 9e3c
000003f0: 6d2d 5b3b d0a3 85bd 72f5 a7bb 29b1 4f3c

conv3.bias f4 [64]
0.04286269 -0.07082606 -0.036630727 -0.03348044 0.028462036 0.02066695 -0.060867015 0.016728088
0.07063287 0.03717005 0.01749126 0.02072545 0.03424915 0.009136072 0.033326704 -0.060515583
-0.060417928 -0.06098359 -0.05744877 -0.011562758 0.057701852 0.0048065204 0.021394582 -0.047397327
0.008132386 -0.042036 -0.045802556 -0.025636785 0.016423548 0.04793469 0.02061529 -0.018626826
-0.05360341 -0.04015888 -0.018334389 0.01711381 -0.017594831 -0.048883047 0.0022149195 -0.006254237
-0.034802236 0.027839493 -0.04751104 0.023872083 -0.04287842 -0.018818533 -0.069291115 -0.020781808
0.034929905 0.032805167 0.056611832 0.006700859 -0.07097061 0.029758133 -0.03329654 -0.073878735
-0.03967032 0.01892592 0.031537827 -0.046329383 -0.04428042 -0.02110384 -0.0050983713 0.039282247
00000000: ca90 2f3d 410d 91bd 1a0a 16bd c922 09bd
00000010: 3729 e93c bc4d a93c b14f 79bd 5809 893c
00000020: f7a7 903d 9f3f 183d d549 8f3c 6bc8 a93c
00000030: d648 0c3d 77af 153c 9581 083d 30df 77bd
00000040: ca78 77bd eec9 79bd 674f 6bbd b971 3dbc
00000050: c758 6c3d 0480 9d3b b143 af3c b323 42bd
00000060: b33d 053c f12d 2cbd 769b 3bbd 3c04 d2bc
00000070: ad8a 863c 2a57 443d 66e1 a83c 4997 98bc
00000080: 408f 5bbd a37d 24bd 0032 96bc 4332 8c3c
00000090: 0923 90bc 9739 48bd 2f28 113b 58f0 ccbb
000000a0: ca8c 0ebd a60f e43c f09a 42bd 638f c33c
000000b0: 48a1 2fbd 5329 9abc 80e8 8dbd 9c3e aabc
000000c0: a912 0f3d b65e 063d cfe1 673d e192 db3b
000000d0: 0a59 91bd 54c7 f33c f461 08bd bc4d 97bd
000000e0: 587d 22bd 880a 9b3c cf2d 013d e1c3 3dbd
000000f0: 635f 35bd f6e1 acbc 3d10 a7bb 6ce6 203d

fc1.weight f4 [256, 576]
0.014535208 -0.0009970986 -0.040079635 0.010250469 -0.02374539 -0.0012278573 -0.021206181 0.011073871
0.03559757 -0.00094120833 -0.022823755 0.0008561491 -0.028380863 -0.009596336 0.0043434557 0.040243026
-0.018859914 0.03321013 0.029355435 -0.011298382 -0.03982176 -0.005608383 -0.050127797 0.03781115
0.009099611 0.013999988 0.027320202 -0.01913383 -0.015061346 0.0027816496 0.031619795 -0.024342256
0.017407333 -0.005705949 0.0210105 0.022882309 -0.005301752 -0.03321238 0.008627721 -0.037228353
-0.03225374 -0.020309584 -0.0032833812 -0.03695294 -0.021638216 0.019982783 -0.008988082 0.009765163
0.029910516 0.048888378 -0.016225368 -0.020907583 0.018512584 -0.018346123 -0.029703056 0.012918605
0.021461137 -0.029852366 0.026026867 -0.010168813 0.027085505 0.050543938 -0.0013108917 0.030551914
0.01882129 0.038187407 0.024334624 0.0058283615 0.011780691 -0.009822883 0.03157421 -0.019888842
-0.035900816 -0.008599023 -0.026585054 -0.047407337 -0.038907576 0.024362074 0.05430816 -0.031985376
0.0019422895 0.030852301 -0.01896736 0.0056972234 -0.005732732 0.017892929 0.0055236197 -0.0014588085
-0.018068332 0.037935276 0.046014253 5.1410963e-05 -0.041653417 -0.042957526 -0.037147462 0.04260287
-0.012798951 0.033062868 0.022869391 0.0133643355 0.037100546 0.0028276942 -0.0043074954 0.031709623
0.012601186 -0.006952994 0.026038308 -0.020070976 0.006211949 -0.017833997 -0.015685534 0.013559755
0.029497368 0.04292416 -0.04406041 -0.021953197 -0.019640582 0.011580084 0.032276962 0.012138761
-0.005366483 0.02233028 -0.00881019 -0.033869315 -0.024179902 0.011447879 0.012526838 -0.009593946
-0.033731908 -0.023658998 0.021514524 0.0062543866 0.007626362 -0.008248973 0.007999526 0.0036144718
-0.025672035 -0.028478272 0.045127902 0.0049658422 0.0069139097 -0.050565455 -0.010015066 0.018406471
-0.006912035 0.030371638 -0.005716102 -0.03699746 0.022673763 -0.021789538 -0.019699683 0.016948644
-0.026955213 -0.004175707 0.005645552 -0.014361396 -0.009572703 -0.009888374 -0.02167497 -0.026818488
-0.011954606 0.027315192 -0.027141107 -0.037947085 0.02657118 0.033697937 0.003413553 0.038334418
0.0013725866 0.01193794 -0.0025563503 0.0041016503 -0.02408932 -0.052124675 -0.01881485 -0.025623767
-0.04442839 -0.0074016266 0.053782657 0.026881492 -0.016263334 -0.01681645 -0.0012822774 0.020671535
0.04599575 -0.0032960346 0.0028224525 0.0040515815 -0.034858074 0.010978191 -0.010129277 0.046631597
-0.016341716 -0.0059004687 0.018002981 -0.009967774 -0.024011465 -0.033016793 0.025150808 -0.00026069133
-0.028527953 0.0026668706 -0.02354426 0.038308486 -0.0010779946 -0.008981149 -0.033450246 -0.03255061
0.010061084 -0.042416133 -0.016779166 -0.013185307 -0.032596495 0.034738567 0.04574425 0.036376633
-0.011613094 0.02519389 0.045044076 0.017717388 0.040449534 0.005503239 -0.0075376797 0.04019221
-0.035844322 0.009329909 0.03173438 -0.024063483 -0.008077177 -0.024110407 -0.00082369364 0.018854355
0.0066420385 -0.038021415 -0.02438602 0.016715681 -0.03178924 0.016703872 -0.0032088347 -0.037677206
0.022033697 0.044367224 0.019417748 -0.02865157 -0.010455312 -0.033904668 -0.016434679 -0.026134849
-0.023455692 0.036209986 -0.02102564 0.03246586 -0.008217602 -0.016643463 -0.034189608 0.0007876995
00000000: 1525 6e3c 14b1 82ba 8b2a 24bd 95f1 273c
00000010: b185 c2bc 0ef0 a0ba 96b8 adbc 2e6f 353c
00000020: c2ce 113d 6cbb 76ba e2f8 babc 326f 603a
00000030: fc7e e8bc f339 1dbc 8c53 8e3b dfd5 243d
00000040: 1b80 9abc 5807 083d cf7a f03c d91c 39bc
00000050: 241c 23bd 87c6 b7bb ce52 4dbd dddf 1a3d
00000060: 8916 153c 3560 653c 9ece df3c 8dbe 9cbc
00000070: ddc3 76bc 564c 363b c283 013d 6969 c7bc
00000080: d399 8e3c f8f8 babb 361e ac3c ae73 bb3c
00000090: 52ba adbb b409 08bd 495b 0d3c c27c 18bd
000000a0: 7f1c 04bd 4960 a6bc ff2d 57bb f75b 17bd
000000b0: a142 b1bc efb2 a33c c042 13bc 10fe 1f3c
000000c0: e606 f53c 2e3f 483d 10eb 84bc 6146 abbc
000000d0: b4a7 973c 9c4a 96bc d353 f3bc 8ea8 533c
000000e0: 44cf af3c f38c f4bc 4c36 d53c 189b 26bc
000000f0: 6ce2 dd3c 2907 4f3d 3ad2 abba 0248 fa3c
00000100: 1b2f 9a3c 666a 1c3d 6859 c73c d7fb be3b
00000110: cd03 413c 28f0 20bc f553 013d eded a2bc
00000120: bc0c 13bd ebe2 0cbc e6c8 d9bc 322e 42bd
00000130: 8d5d 1fbd f992 c73c 3c72 5e3d 1903 03bd
00000140: 6c94 fe3a f7bd fc3c 7061 9bbc c6af ba3b
00000150: a4d9 bbbb 3194 923c 7bff b43b 7e35 bfba
00000160: 0a04 94bc 0562 1b3d 7179 3c3d 1aa2 5738
00000170: c69c 2abd 3bf4 2fbd f027 18bd 5980 2e3d
00000180: b1b2 51bc ee6c 073d 9758 bb3c 16f6 5a3c
00000190: bef6 173d d650 393b e425 8dbb f3e1 013d
000001a0: 3475 4e3c f1d5 e3bb 4a4e d53c e36b a4bc
000001b0: 9b8d cb3b 9a18 92bc f37e 80bc bc29 5e3c
000001c0: 77a4 f13c 3ed1 2f3d b078 34bd 31d7 b3bc
000001d0: 49e5 a0bc 65ba 3d3c d934 043d a7e1 463c
000001e0: 52d9 afbb feed b63c 9d58 10bc 8dba 0abd
000001f0: ee14 c6bc e28f 3b3c 5e3d 4d3c ed2f 1dbc
00000200: 782a 0abd 84d0 c1bc 3a3f b03c 99f1 cc3b
00000210: 90e6 f93b b326 07bc 7210 033c c6e0 6c3b
00000220: 294e d2bc 444b e9bc 09d8 383d 81b8 a23b
00000230: 148e e23b b91d 4fbd 3b16 24bc 2bc9 963c
00000240: 5a7e e2bb f1cd f83c 244e bbbb a68a 17bd
00000250: 54be b93c f97f b2bc 3b61 a1bc e2d7 8a3c
00000260: 2ed1 dcbc 5fd4 88bb 53fe b83b 104c 6bbc
00000270: d4d6 1cbc d902 22bc b58f b1bc 72b2 dbbc
00000280: 40dd 43bc 1cc4 df3c 0757 debc 676e 1bbd
00000290: ceab d93c d906 0a3d eab5 5f3b 8d04 1d3d
000002a0: 5de8 b33a 5997 433c 7188 27bb 2367 863b
000002b0: f756 c5bc af80 55bd 9a21 9abc efe8 d1bc
000002c0: 8bfa 35bd 5889 f2bb 344b 5c3d 9336 dc3c
000002d0: af3a 85bc a7c2 89bc 1712 a8ba 5a57 a93c
000002e0: 0a66 3c3d 4902 58bb e5f8 383b 21c3 843b
000002f0: 57c7 0ebd dfdd 333c 44f5 25bc c600 3f3d
00000300: 10df 85bc b858 c1bb fd7a 933c e04f 23bc
00000310: b1b3 c4bc 9e3c 07bd 1109 ce3c 66ad 88b9
00000320: 74b3 e9bc aac6 2e3b e4df c0bc 5ce9 1c3d
00000330: 7f4b 8dba ab25 13bc 2003 09bd ca53 05bd
00000340: 3fd7 243c 8abc 2dbd 7674 89bc 3007 58bc
00000350: e783 05bd 074a 0e3d 535e 3b3d aaff 143d
00000360: d944 3ebc 6b63 ce3c 2380 383d 0e24 913c
00000370: 69ae 253d 8454 b43b a4fe f6bb 96a0 243d
00000380: 7fd1 12bd 7adc 183c e9fb 013d c820 c5bc
00000390: 2356 04bc 3083 c5bc 25ed 57ba 7374 9a3c
000003a0: 75a5 d93b 58bc 1bbd 31c5 c7bc 53ef 883c
000003b0: 6f35 02bd 8fd6 883c 504b 52bb 6a53 1abd
000003c0: 0380 b43c 68ba 353d f811 9f3c b3b6 eabc
000003d0: c24c 2bbc 9fdf 0abd 05a2 86bc c018 d6bc
000003e0: 2726 c0bc ec50 143d f73d acbc ecfa 043d
000003f0: 1fa3 06bc df57 88bc 670a 0cbd 9e7d 4e3a

fc1.bias f4 [256]
0.00859313 0.0138944285 -0.0024132445 0.041924845 -0.015030803 -0.033140954 0.004026098 -0.007243074
0.038811453 -0.032782137 0.03333188 0.0003419633 0.018696286 0.006727562 -0.008287258 0.022255806
0.020015297 -0.030014241 -0.027127571 0.023089997 0.04630852 -0.020701494 0.019427953 -0.008988083
-0.02339436 0.043585926 0.03645018 -0.018826459 0.05307388 -0.021348622 0.036921985 0.041983448
-0.019515803 -0.032300904 0.019995993 -0.022798063 0.03017873 0.023366828 -0.010756631 -0.04001928
-0.028032584 -0.0026633344 -0.028177332 0.0047988975 0.03311589 -0.02025514 0.023671549 0.005231426
-0.021166686 -0.0068243104 -0.011698354 -0.0050842836 -0.015668193 -0.004054287 -0.020660607 -0.037126884
0.03334038 -0.018088868 0.01376131 -0.04201973 0.024410257 0.013436006 -0.021059308 -0.008559315
0.024470259 -0.022134895 0.030019704 -0.014761994 -0.025333455 0.01611598 -0.015244541 -0.02488674
-0.0058809887 -0.04075823 -0.011023595 -0.018012024 0.023411913 -0.013446573 -0.0014224537 -0.030280285
0.025485054 0.013190106 -0.03983327 0.0055944496 0.019041456 0.03600121 0.013140222 -0.004317379
0.039700285 0.04135402 0.021901092 -0.014838751 -0.041622777 0.047191683 -0.03490571 -0.0012291669
0.017584229 0.0037961034 -0.019790623 -0.004919566 0.006277541 -0.031509932 -0.02647474 0.0016686012
-0.0290809 0.002430966 -0.0020719932 0.032522567 0.042275522 -0.03863779 -0.01826823 0.013684483
0.029192772 -0.00439944 -0.019863063 0.007830581 0.024264608 -0.011886171 -0.04134284 0.0045733484
-0.018984694 0.04741706 -0.023814106 0.04854584 -0.002711935 0.024898177 0.03111174 -0.020720908
-0.03483472 0.019213004 0.015241436 0.0055700867 0.007548665 0.022516195 -0.0055942377 0.029574078
0.031065837 0.009343289 0.01663696 -0.00048052167 0.028254235 -0.02711545 0.025084205 0.0006747853
-0.041242033 0.022325171 -0.029314686 -0.021807868 -0.006275653 0.013942249 0.06283768 0.012417832
-0.055097684 -0.04283318 -0.044145115 0.020062953 0.021087477 0.015627326 0.04447466 0.028423363
-0.042118642 -0.0036024498 0.006661095 -0.00023484672 -0.0368776 -0.021519722 0.035524175 -0.043919366
-0.006877335 0.028254734 0.010973131 0.04940396 -0.013911422 0.023457484 -0.009977524 -0.020219155
0.0052745338 -0.0136830695 -0.027041368 -0.0016910227 -0.050044693 0.025200883 -0.026181322 -0.0066575636
-0.0089664785 -0.016936526 -0.037025094 -0.005041768 0.023674183 0.03859849 0.047454007 -0.0090095205
0.043023616 -0.021532398 -0.008191022 0.041551217 -0.030411003 -0.004818371 -0.03733572 -0.0022340796
-0.039420344 -0.014412086 0.010966482 0.019073116 0.001006133 -0.022777738 -0.007115146 0.0026609588
-0.03462028 0.012148309 -0.02663551 0.0029140993 0.00974123 0.03822841 0.009006794 0.015996614
0.025540464 0.020406038 -0.03242748 0.025761127 -0.03038433 -0.0019866398 0.016864281 -0.04223453
0.03678638 -0.005604879 -0.04205957 0.010939387 0.008749098 -0.038230598 -0.005779539 0.017612727
-0.03855785 -0.024371702 -0.03327017 -0.009301605 -0.040488124 -0.033616215 0.008422925 -0.01787014
0.026700286 -0.025871433 0.017223606 0.02701362 -0.023654621 0.04080916 -0.049322613 0.0031978928
-0.005606133 0.0060152872 -0.03343455 0.021808745 -0.030164463 -0.013160667 -0.0017212124 -0.017939756
00000000: 33ca 0c3c 75a5 633c 8627 1ebb 63b9 2b3d
00000010: c243 76bc cfbe 07bd 5ced 833b 4f57 edbb
00000020: c2f8 1e3d 9046 06bd 0287 083d 8a49 b339
00000030: f428 993c e172 dc3b 48c7 07bc cf51 b63c
00000040: 1ff7 a33c 6de0 f5bc a43a debc 3c27 bd3c
00000050: 01ae 3d3d 2e96 a9bc 5f27 9f3c c142 13bc
00000060: 87a5 bfbc 2887 323d c94c 153d f239 9abc
00000070: ff63 593d 4ee3 aebc 823b 173d d6f6 2b3d
00000080: 9bdf 9fbc f44d 04bd a3ce a33c 01c3 babc
00000090: 6239 f73c ca6b bf3c 953c 30bc 42eb 23bd
000000a0: 97a4 e5bc 568b 2ebb 26d4 e6bc 1240 9d3b
000000b0: 87a4 073d 1bee a5bc d6ea c13c 626c ab3b
000000c0: c265 adbc 779e dfbb 74aa 3fbc 109a a6bb
000000d0: 955a 80bc d3d9 84bb 6f40 a9bc 5c12 18bd
000000e0: ec8f 083d 1b2f 94bc 1e77 613c e11c 2cbd
000000f0: 05f8 c73c b222 5c3c 9284 acbc 5f3c 0cbc
00000100: da75 c83c 3d54 b5bc e2eb f53c 4adc 71bc
00000110: 1b88 cfbc a905 843c 3dc4 79bc 47df cbbc
00000120: 4fb5 c0bb 1af2 26bd 4f9c 34bc f48d 93bc
00000130: 57ca bf3c 044f 5cbc a071 baba 5c0e f8bc
00000140: 08c6 d03c 501b 583c 3628 23bd a551 b73b
00000150: d4fc 9b3c 0176 133d 164a 573c cd78 8dbb
00000160: c49c 223d d562 293d eb69 b33c 3c1e 73bc
00000170: a57c 2abd 114c 413d 4af9 0ebd ff1b a1ba
00000180: cd0c 903c 0cc8 783b f21f a2bc 5034 a1bb
00000190: d5b3 cd3b 8f10 01bd 8ee1 d8bc f7b4 da3a
000001a0: 113b eebc d750 1f3b 47ca 07bb 6236 053d
000001b0: 1929 2d3d a942 1ebd 41a7 95bc e234 603c
000001c0: ae25 ef3c 2d29 90bb ddb7 a2bc d64b 003c
000001d0: 92c6 c63c 37be 42bc 1c57 29bd 07dc 953b
000001e0: ca85 9bbc 6438 423d cd15 c3bc 01d8 463d
000001f0: b8ba 31bb 43f7 cb3c 0cde fe3c e5be a9bc
00000200: daae 0ebd 9764 9d3c 37b7 793c 4685 b63b
00000210: cb5a f73b e273 b83c de4f b7bb 5645 f23c
00000220: c87d fe3c 9814 193c 3c4a 883c 87ee fbb9
00000230: 6d75 e73c 3821 debc 647d cd3c 13e4 303a
00000240: 68ed 28bd 47e3 b63c 5a25 f0bc 6aa6 b2bc
00000250: fea3 cdbb 086e 643c 0bb1 803d 2a74 4b3c
00000260: 1cae 61bd d871 2fbd 82d1 34bd 105b a43c
00000270: a5bf ac3c e104 803c 102b 363d 1dd8 e83c
00000280: 9984 2cbd 1417 6cbb 5145 da3b 3041 76b9
00000290: f70c 17bd 214a b0bc cc81 113d cbe4 33bd
000002a0: 445b e1bb 7976 e73c a6c8 333c cf5b 4a3d
000002b0: bcec 63bc e929 c03c c578 23bc a4a2 a5bc
000002c0: ffd5 ac3b f42e 60bc dc85 ddbc 4ea5 ddba
000002d0: aafb 4cbd 1572 ce3c 367a d6bc b127 dabb
000002e0: 23e8 12bc 78be 8abc a0a7 17bd 6a35 a5bb
000002f0: 5cf0 c13c 7319 1e3d 225f 423d ab9c 13bc
00000300: 8839 303d b664 b0bc a333 06bc 9c31 2a3d
00000310: 7f20 f9bc 6de3 9dbb 57ed 18bd a369 12bb
00000320: 3a77 21bd ac20 6cbc c2ac 333c 393f 9c3c
00000330: 39e0 833a 6198 babc 2c26 e9bb 7b63 2e3b
00000340: ffcd 0dbd b309 473c b732 dabc 79fa 3e3b
00000350: ae99 1f3c 6595 1c3d 3b91 133c 550b 833c
00000360: 3c3a d13c 902a a73c add2 04bd 0009 d33c
00000370: 8fe8 f8bc 4932 02bb f626 8a3c 1dfe 2cbd
00000380: 51ad 163d 22a9 b7bb a846 2cbd 1d3b 333c
00000390: 6058 0f3c b097 1cbd 4962 bdbb 9148 903c
000003a0: d6ee 1dbd 2aa7 c7bc 4d46 08bd c265 18bc
000003b0: e0d6 25bd 28b1 09bd 4f00 0a3c 6664 92bc
000003c0: 8fba da3c 54f0 d3bc 8518 8d3c ab4b dd3c
000003d0: 56c7 c1bc 8127 273d 8206 4abd bd93 513b
000003e0: a7b3 b7bb e31b c53b abf2 08bd 41a8 b23c
000003f0: 771b f7bc d79f 57bc 4e9a e1ba 65f6 92bc

fc2.weight f4 [26, 256]
0.066807166 -0.17967093 -0.07374833 -0.05754857 0.12027443 0.06958191 0.022434367 -0.0073392396
0.10195567 0.0738802 0.10427962 0.047517613 0.19781584 -0.1186874 -0.0040045097 0.031873375
-0.053810276 0.04209356 0.1320501 0.1501401 -0.24195814 -0.04804737 0.14074881 -0.0957662
0.09446798 0.07502069 -0.11550387 -0.14968358 0.21602987 0.098048635 0.16337062 -0.052918583
0.014272281 -0.012073214 -0.10218096 -0.124233514 -0.026570542 -0.11577036 0.010990721 -0.2150583
0.05819687 0.099135876 -0.09069277 0.091310166 -0.13055761 -0.032011468 0.16107771 -0.016202021
0.14611025 -0.11501475 0.07552888 0.17034477 0.034722954 -0.13206963 0.06286021 -0.124697015
0.050947867 -0.12560372 -0.065016955 -0.011531179 -0.16645171 0.1442259 0.22532111 -0.14152528
0.091331005 -0.08246216 -0.10787287 -0.0034338078 -0.12604904 0.061967187 -0.18838736 0.089893326
0.120206185 -0.0716191 -0.11354964 -0.14693415 -0.23143105 0.11246332 0.110470936 -0.020306505
0.14811951 -0.068832755 0.0016326564 0.035885796 -0.0597511 0.093651146 0.037246063 -0.08538518
-0.1949378 0.051425498 0.0066815163 -0.15129328 -0.14301942 0.098026186 0.10637319 0.0968764
0.16085036 0.010049453 -0.059385125 -0.10336674 0.043638762 -0.035803553 0.027003037 -0.15197061
0.08177537 -0.17348187 -0.07672007 0.1164042 -0.19655193 -0.0037517622 0.15399134 0.062065084
0.11255448 0.18572852 0.029596513 0.12370389 0.10425705 -0.102871075 0.08257241 -0.105834916
-0.22016169 -0.09842058 0.07877515 -0.09520669 0.13246523 -0.0873135 0.26458144 -0.07362569
0.062362596 -0.029507734 -0.14787221 -0.040880043 0.08261352 -0.04370695 0.09010336 -0.038600907
-0.09369724 0.20743547 0.0066745705 0.101173505 -0.13000053 0.07412635 0.058687475 0.12879372
0.061073665 0.089577824 -0.059341077 0.07030255 -0.21468472 -0.24233425 0.14624082 0.08280982
0.11347317 0.10709233 0.19108249 0.1342617 -0.039324157 0.101723805 -0.10639018 -0.014015533
-0.18091553 -0.09780745 0.07299685 0.046376582 0.089280955 0.1390485 -0.08794862 -0.11673575
-0.08428769 0.045393154 -0.06813136 -0.0698319 0.049085956 -0.14825259 0.05280383 0.058835022
0.13768482 0.06954737 -0.25164098 -0.07566756 0.11641215 -0.120637186 -0.07861864 0.10577324
0.17552973 -0.03740872 0.10008705 0.095811434 -0.14411217 -0.08093054 -0.19333388 0.010709595
0.27594134 -0.106970824 -0.025092412 0.15402384 -0.000863039 -0.047496073 -0.08491384 -0.053015508
-0.06065124 -0.057344496 -0.090243354 -0.07338637 -0.1858571 0.12023638 -0.0910323 0.14062296
0.08171439 0.110031895 0.0047217384 -0.11088463 0.15413694 0.03068811 -0.14568761 0.13562427
0.0006122238 0.018097917 0.13102186 0.13935228 -0.0659118 0.017354602 0.16436571 0.13152328
0.06503455 0.12551942 0.03996669 -0.027348712 -0.041784067 0.10614597 0.091621846 0.036714844
0.124656685 0.053949855 -0.05467007 0.084683776 0.11056584 -0.11153591 -0.09110243 0.105442144
-0.08731212 0.083434254 -0.07566498 -0.11470147 -0.18977226 -0.1634082 0.054108437 -0.033286963
-0.13820577 0.13689713 9.7267875e-05 0.120680824 -0.03728881 0.08493331 0.021624308 0.07466102
00000000: 32d2 883d a8fb 37be 5d09 97bd 0db8 6bbd
00000010: 7152 f63d f680 8e3d 47c8 b73c 017e f0bb
00000020: 22ce d03d 814e 973d 8e90 d53d d4a1 423d
00000030: 3c90 4a3e 6112 f3bd 4338 83bb a88d 023d
00000040: 2a68 5cbd 4c6a 2c3d 2438 073e 54be 193e
00000050: e0c3 77be 52cd 44bd 7520 103e 1221 c4bd
00000060: 6e78 c13d 73a4 993d 4b8d ecbd a746 19be
00000070: ef36 5d3e b9cd c83d a14a 273e 28c1 58bd
00000080: 49d6 693c bbce 45bc 4044 d1bd 246e febd
00000090: 77aa d9bc 0319 edbd 6d12 343c 3e38 5cbe
000000a0: d75f 6e3d c007 cb3d 22bd b9bd d300 bb3d
000000b0: e5b0 05be 751e 03bd 8ef1 243e 1aba 84bc
000000c0: ed9d 153e da8c ebbd e3ae 9a3d dc6e 2e3e
000000d0: a839 0e3d 433d 07be dbbc 803d 2661 ffbd
000000e0: b6ae 503d 439e 00be 9c27 85bd 45ed 3cbc
000000f0: 5172 2abe f4af 133e 94ba 663e 01ec 10be
00000100: c00b bb3d ece1 a8bd 74ec dcbd bc09 61bb
00000110: 0013 01be 4ed1 7d3d 9ee8 40be fe19 b83d
00000120: a92e f63d 09ad 92bd b78c e8bd e875 16be
00000130: 43fc 6cbe 2b53 e63d 963e e23d d459 a6bc
00000140: a4ac 173e 30f8 8cbd dcfe d53a fcfc 123d
00000150: 92bd 74bd 2ccc bf3d 548f 183d 6dde aebd
00000160: c69d 47be 8ba3 523d 9ff0 da3b a0ec 1abe
00000170: af73 12be f4c1 c83d 30da d93d 2267 c63d
00000180: f5b5 243e 76a6 243c d13d 73bd f1b1 d3bd
00000190: 8fbe 323d bfa6 12bd 7935 dd3c 2f9e 1bbe
000001a0: d879 a73d 3ba5 31be 691f 9dbd 5365 ee3d
000001b0: e944 49be 20e0 75bb e8af 1d3e f537 7e3d
000001c0: f782 e63d 9e2f 3e3e 6374 f23c 7758 fd3d
000001d0: b884 d53d 12ae d2bd b91b a93d fabf d8bd
000001e0: 1172 61be bb90 c9bd de54 a13d bafb c2bd
000001f0: f7a4 073e 6cd1 b2bd 3877 873e 11c9 96bd
00000200: ec6f 7f3d 34ba f1bc d06b 17be d571 27bd
00000210: 4731 a93d 0f06 33bd 1c88 b83d fc1b 1ebd
00000220: 57e4 bfbd f769 543e 5bb6 da3b 0e34 cf3d
00000230: dc1e 05be 8ecf 973d 4762 703d 80e2 033e
00000240: 6128 7a3d 9474 b73d a10f 73bd c9fa 8f3d
00000250: 50d6 5bbe 7826 78be 27c0 153e 3298 a93d
00000260: 9f64 e83d 3953 db3d 21ab 433e e67b 093e
00000270: 5e12 21bd 9254 d03d 18e3 d9bd 68a1 65bc
00000280: ec41 39be 464f c8bd 5f7f 953d 5ff5 3d3d
00000290: efd8 b63d bb62 0e3e 681e b4bd 2713 efbd
000002a0: 069f acbd 2cee 393d 7488 8bbd 0704 8fbd
000002b0: 5b0e 493d 87cf 17be d448 583d fefc 703d
000002c0: 40fd 0c3e da6e 8e3d 16d7 80be 98f7 9abd
000002d0: 7e69 ee3d a110 f7bd cf02 a1bd a49f d83d
000002e0: 11be 333e e339 19bd 70fa cc3d c938 c43d
000002f0: 2492 13be e9be a5bd 51f9 45be 4c77 2f3c
00000300: 2f48 8d3e 8513 dbbd 9a8e cdbc 6db8 1d3e
00000310: 913d 62ba 3e8b 42bd 4fe7 adbd ca26 59bd
00000320: 6f6d 78bd 10e2 6abd 82d1 b8bd 984b 96bd
00000330: 5351 3ebe 7e3e f63d 246f babd 77ff 0f3e
00000340: e059 a73d 6758 e13d d0b8 9a3b 7b17 e3bd
00000350: 13d6 1d3e a265 fb3c 222f 15be 17e1 0a3e
00000360: a57d 203a 1542 943c 982a 063e 5db2 0e3e
00000370: c4fc 86bd 3d2b 8e3c 7c4f 283e 0aae 063e
00000380: d630 853d 2a88 003e 1db4 233d 680a e0bc
00000390: c525 2bbd 0f63 d93d 3ca4 bb3d 4e62 163d
000003a0: 014c ff3d 86fa 5c3d b9ed 5fbd b06e ad3d
000003b0: 5870 e23d f06c e4bd e993 babd 0df2 d73d
000003c0: b2d0 b2bd 94df aa3d 3ef6 9abd 9be8 eabd
000003d0: a953 42be 7b54 27be cfa0 5d3d e957 08bd
000003e0: d085 0dbe c32e 0c3e 4bfc cb38 8227 f73d
000003f0: 27bc 18bd 84f1 ad3d 7625 b13c e0e7 983d

fc2.bias f4 [26]
0.060267385 0.037562825 -0.041114483 -0.08511987 -0.012263085 -0.022954209 -0.03486357 0.11385203
0.1859923 -0.0008892798 0.014016883 -0.05805536 -0.07136365 0.0039480235 -0.06251528 0.02764375
0.0061620004 -0.06825373 -0.045665253 -0.016884144 0.014337445 0.039551858 -0.01185778 -0.00866434
-0.047803085 0.083174475
00000000: efda 763d 7adb 193d a967 28bd 5453 aebd
00000010: 1beb 48bc 770a bcbc 1acd 0ebd 412b e93d
00000020: c474 3e3e 8f1e 69ba 12a7 653c 75cb 6dbd
00000030: 1b27 92bd 6c5e 813b 0308 80bd 2575 e23c
00000040: 9bea c93b 9dc8 8bbd 7d0b 3bbd 9e50 8abc
00000050: 9ae7 6a3c 2101 223d 2247 42bc e0f4 0dbc
00000060: 2bcd 43bd 6157 aa3d
